app/src/main/assets/audio.tflite (tflite, 222904 bytes, 14 tensors)

sequential/dense/BiasAdd/ReadVariableOp f4 [128]
00000000: 3e03 5dbd a01d 00bd a6ac aa3b b0f6 adbc
00000010: 43f5 683b 9beb cd3b 38ce d9bb 4447 09bc
00000020: 3502 b8bc e22c b0bc 0bdb 67bb 4e86 f1bc
00000030: ec6b 7c3a 8438 463c 51ac 613c 1910 6bbc
00000040: 1250 a3bc 3432 5a3c 9c38 213c 8cae 99bc
00000050: 687b 63bd 4be8 a5bb 39bc d0ba 139c ec3c
00000060: b332 0dbd 2584 7dbc d4be c33c 3394 05bd
00000070: 6276 62bd ba3e a2bc a7f6 23bc 6d0b 09bd
00000080: e0e5 1739 d4d5 a23b a51f 23bc d01f 9837
00000090: 2110 83bc d4ab 75bc 1455 a0bc 508c a5bc
000000a0: b190 78bc 2f4e f23b ffc0 9dbc 1cdf 61bc
000000b0: 71e8 b8bc 97be d93c ad86 41bb 7339 10bd
000000c0: 8ba9 ab3b d34f 8cbc 44e7 303c 5980 24bc
000000d0: 058f afbc 8cea a43c e1fb 47bc a609 2f3c
000000e0: 6e2e 273c 66f7 91bc 62d4 38bd 9670 80bc
000000f0: d7ad 2fbc 990d 0bbc 6943 d6bc 8b2a 7d3c
00000100: 7018 993c 5812 093b 0242 56bc f77a 86bb
00000110: ed3e 033c 7202 63bb f6b5 75bc 38ba d5bc
00000120: 4010 cdbc da41 2fbc a2d2 05bd f714 823c
00000130: c71e 58bc df67 f2bc 7d13 ccbc f56c a9bc
00000140: eacb 4cbb 148c b8bc 8cfb 98bc a4be caba
00000150: f37e 9bbc 29b6 40bc 34e7 cb3c 8542 ca3c
00000160: e7b5 57ba 9d43 f4bb 713f d5bb 57a9 d5bc
00000170: e2c2 3dbd bc44 07bc 0d8d 27bd 073f d4bc
00000180: 6481 83bc d728 523b 89e6 bfbc d2fd 133c
00000190: e6e1 c3bc f969 72bc 614b b43c 4551 e9bc
000001a0: 496e 45bc e5a6 edbb 111c adbc fd73 383d
000001b0: f43e 543b 3e9d ddbc 85d9 c9bc fc9c 00b8
000001c0: 7780 51bc 72fe 173c 2824 1abd caf4 1fbc
000001d0: d3a5 f0ba a1a0 f5bc 147e 7d3a 6498 96bc
000001e0: c3d8 4abb 19c9 b33a 1345 203c 05fc e23c
000001f0: 2ed2 033b 5318 47bc 7326 d63a 00ac db39
-0.05395817 -0.031278253 0.0052085696 -0.021235794 0.0035546578 0.00628419 -0.0066468976 -0.008378807
-0.02246199 -0.021505777 -0.0035378363 -0.029482987 0.0009629119 0.012098435 0.013773994 -0.0143471
-0.019935641 0.013317633 0.009840157 -0.018759988 -0.05553761 -0.005063092 -0.0015925235 0.028883016
-0.03447218 -0.0154734 0.023894705 -0.032612037 -0.05528868 -0.019805301 -0.010007537 -0.033458162
0.00014486117 0.004969338 -0.009956275 1.8134626e-05 -0.015998902 -0.01499458 -0.019571818 -0.020208508
-0.015171216 0.007394574 -0.019257067 -0.013786104 -0.022571774 0.026580138 -0.0029529736 -0.035211038
0.005238717 -0.017127907 0.0107973255 -0.010040366 -0.021430502 0.020131372 -0.012206049 0.010683453
0.010203941 -0.017818164 -0.04512442 -0.015678685 -0.010722599 -0.008487129 -0.02615519 0.015452038
0.01868841 0.0020915475 -0.013077261 -0.004104014 0.008010608 -0.0034638909 -0.014996996 -0.026089773
-0.025032163 -0.010696853 -0.03267158 0.015879137 -0.013190932 -0.029590545 -0.024911636 -0.020681838
-0.0031249472 -0.022527732 -0.018674634 -0.0015468192 -0.018981433 -0.01176218 0.02489052 0.024689922
-0.00082287047 -0.007454349 -0.006507807 -0.026081724 -0.046328433 -0.008256134 -0.040906 -0.02590896
-0.01605291 0.00320678 -0.023425357 0.009032683 -0.023911428 -0.014795774 0.0220086 -0.028481135
-0.01205022 -0.0072525614 -0.021131547 0.04503249 0.0032386156 -0.027052518 -0.024639854 -3.066378e-05
-0.012786976 0.009276973 -0.037632138 -0.009762952 -0.0018359966 -0.02998382 0.0009669971 -0.018383212
-0.0030951954 0.0013716548 0.009782094 0.027708063 0.002011429 -0.012151795 0.0016338363 0.00041899085

sequential/dense_2/BiasAdd/ReadVariableOp f4 [3]
00000000: 9591 ae3c f15e a9bc 7b47 563b
0.021309653 -0.020675154 0.0032696414

sequential/dense_1/BiasAdd/ReadVariableOp f4 [64]
00000000: 2416 523a 04e3 563c 0455 4b3c 106e 2d3b
00000010: 1611 a7bc e2e3 91bc 3cbf 663c cbf0 223c
00000020: f581 bdbb e6b4 0dbb 1696 cf3c 5b92 783c
00000030: ab72 bd3a 8cba de3c 1ca4 9a3c 58aa 613b
00000040: 35bc 3bbc 0d2a ea3c 21da 22bc c84a b4bb
00000050: 7426 8e3c 36ec 263b aa80 70bb 0b78 783b
00000060: 8f59 65bc d284 843c 16a2 983c ce61 9439
00000070: 0740 9d3c 3e97 eebb 4b28 99bb c00d 18ba
00000080: d430 a23b 197b 1e3c bc3f 8b3a 96ac 3bbc
00000090: 08ca be3c a677 0ebc 4022 04bc 765f b83c
000000a0: 1375 b0bb 2ac0 b5ba 03ac 0dbc 5f8a 6a3c
000000b0: 1953 293c 47f9 653b cc47 803c e8ab bcbc
000000c0: 78ae 673c 8f6c ea3b 2013 30bc 6e0b 42bc
000000d0: 0274 99bc 2c34 bb3c 218a fbb9 33a6 5cbc
000000e0: c223 293c ac0c 64bb 986d 7b3b 6549 cdbc
000000f0: fd9d 243b c6fd 2bbc ab30 77ba 373d 2fbc
0.00080141635 0.013115648 0.012410406 0.0026463307 -0.02039389 -0.017808858 0.01408368 0.009945105
-0.0057833144 -0.0021622716 0.025340121 0.015171613 0.0014453729 0.027188562 0.018877082 0.0034433808
-0.011458446 0.028584505 -0.009939701 -0.0055020787 0.01735232 0.0025470383 -0.0036697784 0.0037913348
-0.013998403 0.016176615 0.018631976 0.0002830163 0.01919557 -0.007281213 -0.0046739927 -0.0005800389
0.0049496684 0.009672903 0.0010623853 -0.011454722 0.023289695 -0.008695519 -0.008064806 0.022506457
-0.00538505 -0.0013866473 -0.008646968 0.014315217 0.010334753 0.0035091208 0.015659235 -0.02303119
0.014140718 0.0071540545 -0.010746747 -0.011843545 -0.018732075 0.022852026 -0.00047977365 -0.013467359
0.010323467 -0.0034797592 0.0038364884 -0.025059411 0.0025118582 -0.010497516 -0.00094295543 -0.010695747

sequential/conv2d/BiasAdd/ReadVariableOp f4 [64]
00000000: 5239 11bd 430e 4c3c 366b 50bc 4fa5 3e3c
00000010: d0ed 5d3b ae6a 0a3d e1be 90bc e473 17bd
00000020: 67ac 1c3d d648 dc3c 72f6 4ebc 8d28 9cbc
00000030: 95e0 18bd 5329 89bb 77b1 0a3d c225 b03c
00000040: 5aa4 edbc 0b80 b23c defb 1fbc bc0f 6cbc
00000050: 5162 1fbc 7065 27bb 587d 10bc a27a eb3c
00000060: 294b 193c e6c9 9ebc 61a8 5ebc b534 0fbd
00000070: 6ba8 0d3d 19c0 a33c ab0a 8abc eae3 3d3c
00000080: 8733 58bc e5de 25bd cf51 5ebd 3f91 32bd
00000090: 0eec fe3a f0b4 bdbc 637f ac3b 45ab 593b
000000a0: 7643 2b3c 490d 73bd b4d9 b9bc f289 26bd
000000b0: f7ee 16bd 0a42 24bd d94d 993c 2c5f 45bc
000000c0: 1603 1dbd 92ee ebbc 89a3 83bc 5bed 4dbd
000000d0: 5bb8 aa3c f49a 09bd 7f5d d6bc b919 08bd
000000e0: 6085 2d3d 7f39 39bd 2798 113c 4c61 133d
000000f0: ab4a 1c3d b219 8bbd 1ce5 0ebc 0885 a53b
-0.035455056 0.012454572 -0.012720874 0.011636092 0.003386367 0.033793144 -0.017669143 -0.036975756
0.038250353 0.0268902 -0.012631999 -0.019062305 -0.037323553 -0.0041858344 0.03386065 0.02150238
-0.029009033 0.021789571 -0.00976464 -0.014408048 -0.00972803 -0.002554264 -0.008818947 0.028745
0.0093562985 -0.019383382 -0.013589949 -0.034962375 0.034584444 0.01998906 -0.01685079 0.0115899835
-0.013195879 -0.040495772 -0.054277238 -0.04359555 0.0019449012 -0.023157567 0.005264209 0.0033213657
0.010453096 -0.05933884 -0.022686817 -0.0406589 -0.03684899 -0.040102042 0.018713878 -0.0120466165
-0.03833302 -0.028800283 -0.01606919 -0.050275188 0.02083986 -0.03359504 -0.02616763 -0.033227656
0.042363524 -0.04522085 0.008886374 0.03598146 0.038157146 -0.0679201 -0.008721616 0.005051259

sequential/conv2d_1/BiasAdd/ReadVariableOp f4 [32]
00000000: 781f 2abd 5f22 fdbc bbb5 9dbc 3e5d 00bd
00000010: 89b5 70bd 3843 f23b 623f a43c 5a67 393b
00000020: bdaf 5e3c c07e ebb6 ed30 5fbd e8e3 8b3c
00000030: 5c39 c7bc 8ef5 2e3d 18a6 85bc 6d46 cfbc
00000040: 3c53 c13c e035 13bc 7dc6 c0bc 68e9 47bd
00000050: bcd2 babc 12f7 f03b d82a 28bd 2633 77bd
00000060: b039 66bd f3e8 803c 35a2 77bc 7365 6abd
00000070: b404 01bd 9ac9 01bb 226f 7cbc 4e44 613c
-0.041533917 -0.030900178 -0.019251695 -0.031338923 -0.058766875 0.007393267 0.020049755 0.0028290362
0.013591704 -7.0183014e-06 -0.05449002 0.017076448 -0.024319343 0.042714648 -0.016314551 -0.025302136
0.02359926 -0.008985013 -0.023532147 -0.048806578 -0.022805564 0.007353672 -0.041056484 -0.060351513
-0.05620736 0.015736079 -0.015114357 -0.057225656 -0.031498626 -0.0019804002 -0.0154073555 0.013749195

sequential/batch_normalization/FusedBatchNormV3 f4 [64]
00000000: 1a05 c840 4784 9240 bbc8 f840 23e2 c040
00000010: 0b50 de40 bee9 fd40 24ac cc40 8779 fd40
00000020: 1473 9740 6d85 b040 3029 d240 818e 0041
00000030: 85e6 0941 f8e4 9140 7cdd ed40 4450 e740
00000040: 0e1a 6b40 22b6 0341 54bc 0041 b39a de40
00000050: 14eb 2d40 1f72 fa40 2bca bc40 770f 0c41
00000060: 00f7 c640 07bc 7c40 531d dd40 a7fd b140
00000070: 970d ae40 c353 9e40 d482 b940 18dd c040
00000080: 767d c640 5f94 ea40 9df1 1041 5532 b740
00000090: 5909 f140 f456 4941 6fd3 b140 0d52 8240
000000a0: 1a63 a940 22bf f840 1a1f e740 c4fd cb40
000000b0: c142 0e41 3bdb 1641 5ce4 f340 8c24 6440
000000c0: 0d99 3941 ab64 0c41 dcbf c140 a1fb eb40
000000d0: a1ea 9640 1acb 7541 d554 8740 dcb7 c740
000000e0: 5873 a440 a7ac 0841 47fb 3a41 c6ae a540
000000f0: e18e ca40 44d8 ec40 d863 b240 edba c540
6.2506227 4.578647 7.774503 6.0276046 6.947271 7.934783 6.3960133 7.921085
4.7327976 5.5162873 6.567528 8.034791 8.618779 4.5592003 7.4332867 7.228548
3.6734653 8.231966 8.045979 6.956384 2.717473 7.826431 5.8996787 8.753776
6.2176514 3.9489763 6.9098296 5.5622134 5.439159 4.947725 5.79722 6.026989
6.202815 7.3306117 9.058988 5.724894 7.532391 12.583729 5.55706 4.072516
5.2933474 7.7733316 7.2225466 6.3747272 8.891297 9.428523 7.621626 3.5647306
11.599866 8.774577 6.0546703 7.3744664 4.716141 15.362085 4.2291055 6.241194
5.13908 8.542151 11.686347 5.1775846 6.3299413 7.4013996 5.574688 6.179068

sequential/batch_normalization/FusedBatchNormV31 f4 [64]
00000000: ff40 11bf d0f7 58bf bad9 18bf 5a32 2fbf
00000010: 17b9 40bf e00d 7ebf 7fd6 37bf fa85 03bf
00000020: 1f48 66bf 57b4 49bf fa6c 23bf fa65 20bf
00000030: b8f5 09bf 5183 16bf 4d61 70bf cf30 3ebf
00000040: e5ea 0bbf fbe1 5abf 386c 2fbf 5d69 26bf
00000050: df5b 14bf ab83 2dbf 70e4 43bf 79ab 7bbf
00000060: e235 4ebf 155a 02bf 4de3 28bf 2b57 23bf
00000070: 01e7 60bf 6927 5abf 5796 07bf 5947 45bf
00000080: f8d6 33bf 4295 14bf ccf9 c2be d4d9 14bf
00000090: 019a 3abf 2376 febe 23f0 3bbf 8bb2 20bf
000000a0: 983a 42bf e4a2 f1be 04f2 34bf d1d4 0cbf
000000b0: f000 12bf b913 00bf 01ec 2dbf cbbd 16bf
000000c0: 5c20 ecbe 9af9 f4be c001 2bbf 5b62 07bf
000000d0: bbbf 3dbf dcb0 b4be 2784 16bf 3e21 27bf
000000e0: 6606 37bf 5c60 0ebf d4c3 29bf 9af3 57bf
000000f0: d630 6ebf a66d 04bf 7ca3 17bf ecfb 41bf
-0.567398 -0.8475313 -0.59707224 -0.68436205 -0.75282425 -0.9923992 -0.7181167 -0.51376307
-0.899538 -0.787908 -0.6383816 -0.62655604 -0.5389056 -0.5879412 -0.9389847 -0.74293226
-0.54655296 -0.8550107 -0.68524504 -0.6500452 -0.57952684 -0.67779034 -0.7652044 -0.9830852
-0.8055097 -0.50918704 -0.65971833 -0.6380488 -0.87852484 -0.85216385 -0.52963775 -0.7706199
-0.7024989 -0.5804025 -0.38081205 -0.5814488 -0.7289124 -0.49699506 -0.73413295 -0.62772435
-0.75870657 -0.47194588 -0.70681787 -0.5501223 -0.5703268 -0.50030094 -0.6793824 -0.5888335
-0.46118438 -0.4784668 -0.66799545 -0.52884454 -0.7412068 -0.35291183 -0.587954 -0.652851
-0.7149414 -0.5561578 -0.66314435 -0.8435608 -0.9304327 -0.5172981 -0.5923383 -0.7577503

sequential/batch_normalization_1/FusedBatchNormV3 f4 [32]
00000000: abf1 bc3f b9c0 523f 4ea4 443f 585a c83f
00000010: 99ff fe3e 21bc 773f 8fee 7e3f 0f50 933f
00000020: 4e8f c83f baeb 9d3f a747 523f e47d c03f
00000030: 1df7 d93f 4b88 483f 1569 9e3f 56ac ea3e
00000040: 78f6 ac3f ea1b b43f 82a5 e63f b581 643f
00000050: 2a74 433f 861b 7a3f 049f c93f 21e9 c63f
00000060: 9cd9 913f 267b b73f 9ad4 933f 666d e13f
00000070: 36b5 9a3f 9c09 e23f f248 e83f 93c5 a93f
1.4761251 0.8232532 0.7681321 1.5652571 0.4980438 0.96771437 0.9958276 1.1508807
1.5668733 1.2337563 0.8214058 1.5038419 1.7028538 0.78332967 1.2375818 0.45834607
1.3512716 1.4071019 1.8019259 0.8926042 0.7634913 0.9769825 1.5751653 1.5539895
1.1394534 1.4334457 1.1549256 1.7611511 1.2086551 1.7659183 1.8147261 1.326342

sequential/batch_normalization_1/FusedBatchNormV31 f4 [32]
00000000: f5fb 8fbf 9f82 5fbf 1852 5cbf d17c 89bf
00000010: 3724 2bbf 75db 81bf 5977 66bf 9f5c 85bf
00000020: 43aa 9dbf 2dec 8bbf a28d 31bf 1e56 97bf
00000030: c135 d0bf 8042 73bf 6f16 46bf a034 40bf
00000040: 1e4c 8fbf 1c22 88bf 4d79 a2bf f371 56bf
00000050: 3e36 43bf b277 7bbf dba9 b7bf 6134 a7bf
00000060: 4b32 50bf 346a aebf 17b6 75bf e1d4 8cbf
00000070: b1db 66bf a6db adbf d276 9abf 9f24 aabf
-1.1248766 -0.87308687 -0.86062765 -1.0741216 -0.66852134 -1.0145098 -0.9002586 -1.0418891
-1.2317585 -1.093145 -0.6935674 -1.1823156 -1.6266404 -0.95023346 -0.7737798 -0.750803
-1.1195104 -1.0635409 -1.2693268 -0.8376762 -0.7625464 -0.98229516 -1.4348711 -1.306286
-0.8132674 -1.3626161 -0.9598097 -1.1002465 -0.9017897 -1.3582656 -1.2067511 -1.3292426

sequential/dense/MatMul f4 [128, 288]
00000000: 11a3 c33c abf8 e73b 2bcd 3d3d df25 a33d
00000010: f322 913d 0d24 f9bd dcc5 8a3d 5bd9 773d
00000020: e629 b33d a1c5 1fbc f00d 01bd 6b08 c5bd
00000030: 16a2 36bd 1d68 b93c f9ce 8a3d d82e b9bc
00000040: 23df 723d f2e6 80bc e543 f73d b510 0cbd
00000050: 4009 51bd 68d1 d63d 8f0f 2b3d a779 87bd
00000060: bd5b 52bc 7153 98bd 8845 f7bd aa09 293c
00000070: c20e e0bb 1a07 ab3d 983c 87bd 77bd a63d
00000080: 7cff a0bb b1b1 dcbd 4409 8a3d 81b5 dbbc
00000090: d0f8 e03d 0e85 043c b7bb b1bd 4d3f 3ebd
000000a0: bc0e 5a3d a16c 9d3d f2fa f9bd 3337 773d
000000b0: 37d3 c43c 2917 8c3d c553 043e 87e5 85bd
000000c0: 7cd4 20bd 18de 813d 02ba 20bd 17fd c4bd
000000d0: 54cc cfbd 051e 67bd 1a34 4cbd 75e0 903d
000000e0: 94b7 d5bd e323 79bd c263 b73d a038 c13d
000000f0: 1e7f 023d aace c3bd 7a91 c43d 8e42 2e3d
00000100: 7b83 4d3c aef9 903d 7433 eebc 02e4 243d
00000110: be4c b1bd 3925 bf3c 3609 bd3d 7bbe a4bd
00000120: abfb d8bc fb26 0ebd e294 acbc c6ea 193c
00000130: e957 b33d 671a 7abd 73e4 debd 7b65 ee3c
00000140: b1dd 97bd 4112 343d 0456 943d abd2 86bd
00000150: 1e87 0abe 1b10 a93d 9495 643c 51b7 e53d
00000160: d16b 9dbd 30b2 42bd 9f35 903c 0955 87bd
00000170: 6e5a e23c ae1d 9cbc 1864 67bd 715d 0dbd
00000180: 080f adbd 9bdb c63d e1df 98bd 134c fd3d
00000190: ff4f a8bc cc8d 953b 8c10 0ab8 6d8c b5bc
000001a0: 409a c93b 4fc3 d7bd ebdf 0cbe 3036 593d
000001b0: e30c c0bd def6 bbbd 52ac 9cbd 8716 03be
000001c0: 04fa debd ce8a 8dbd 64ec 0b3d 9bea 4fbd
000001d0: fa43 3abd 5082 d93d 9330 f53d 0736 3a3d
000001e0: 99d1 82bd dc01 cd3d 73a0 c1bd 208d fbbd
000001f0: e956 8b3c 3b1c 9b3c e872 b73d 81c7 fe3c
00000200: d6a4 d6bd 7f46 cb3d 2e70 30bd 9210 c7bd
00000210: 8404 d53d 88de aabd 5b2e c3bd 7c68 b3bc
00000220: d5d0 e23d 8cd3 9ebd eb3c 6fbd fc27 523d
00000230: 0cd4 8fbc ff84 d73d 6b6a bfbd 8e5b 933d
00000240: 2aca 74bd 12e7 f43d fa9a 923d 3356 77bd
00000250: da63 d73d 3578 683c b46f 363c 3537 b43d
00000260: 7706 9abd dca2 b6bd 155b f5bc 5a3e 2dbd
00000270: 8c09 823d ff90 32bd 9e20 dc3d 06f2 a3bd
00000280: a106 103e 93cc 75bc e2a1 f93d 0ee9 50bd
00000290: 6f3b 99bd 7f30 2fbd a803 a6bd 07e9 f73d
000002a0: c0dc 1f3e 4add 27bd 455b f7bd 775e 183c
000002b0: 4dea 523d 0813 0f3e b3ce 25be cc0f 203d
000002c0: 2757 c73d 366e 523d 4ba1 9dbc ce04 d9bc
000002d0: 7b22 d2bc 2007 4abb 5d49 9b3d d0cf 443d
000002e0: 571d 48bd 35a0 3ebb 500b 97bd ec40 6e3d
000002f0: ad65 89bd 42ab cc3d 2618 153d 9446 913d
00000300: 0a21 89bd 4880 7dbd bd33 d93c 538b 963c
00000310: 053e f6bb d385 f23d 3011 8abd 9d32 cd3c
00000320: b8b1 273d 0609 903d 0e3b 6c3c 16bf 973b
00000330: 1df3 8f3d e00b d43d 51f7 9e3d 0743 a83c
00000340: c996 0c3e 1e85 02bd 5bfb 4dbd 9ef5 20bd
00000350: ddee 0ebc 234b 303d 24ee 05bd bf50 52bd
00000360: 6af7 74bd 2ebe bf3d 558f ad3d aa8e c93b
00000370: 6bbc 3dbc 1edd c13c d164 8a3d 3c63 06be
00000380: 156c 40bd bed0 c13d f3dd 9b3d d783 c7bd
00000390: 9a8d 9c3d cefd 903d 8e6d f43d 5fbc 9d3d
000003a0: 6c6e 0e3d 849c 853d 10f4 93bd 053b f0bc
000003b0: 715e 04be 23bb 43bd 6f91 abbd 329e c9bd
000003c0: 7537 cf3d 7076 25bd fe80 343d dc7b dd3c
000003d0: 52ab b53d 6e02 2b3d 7269 64bd b999 babd
000003e0: 5951 1d3d 809d 01be 1cf2 2a3d ab79 ca3d
000003f0: ca62 9d3d 7921 3d3d 0735 d73d b888 ce3d
0.023881467 0.007079204 0.04633824 0.07966208 0.07086744 -0.12165079 0.0677602 0.06051002
0.08748226 -0.009751708 -0.031507432 -0.09620746 -0.04458817 0.022632653 0.06777758 -0.022605345
0.05929483 -0.015735123 0.12073497 -0.03419562 -0.051034212 0.1048916 0.041762885 -0.06615
-0.012839255 -0.0743779 -0.12073809 0.0103172455 -0.006837697 0.08350964 -0.06603354 0.08141606
-0.0049132686 -0.107760794 0.067400485 -0.026819946 0.10984957 0.008088363 -0.08678382 -0.046447087
0.053236708 0.07686735 -0.12206067 0.060355376 0.024026496 0.06840355 0.1292258 -0.065379195
-0.03926514 0.06341189 -0.03923989 -0.096185856 -0.10146394 -0.056425113 -0.049854375 0.07074062
-0.104354054 -0.06082524 0.08954574 0.094346285 0.03185951 -0.095609024 0.0959806 0.04254394
0.012543554 0.070788726 -0.02907727 0.040256508 -0.086572155 0.023333179 0.092302725 -0.08044144
-0.026487192 -0.034705143 -0.021067087 0.009394353 0.08757002 -0.061060335 -0.10883417 0.029101124
-0.07415331 0.04396272 0.07242969 -0.065831505 -0.13528106 0.08255025 0.013951678 0.112166055
-0.0768658 -0.047533214 0.017603694 -0.06608016 0.02763101 -0.019057121 -0.05649194 -0.03451294
-0.084501326 0.09709855 -0.074645765 0.12368026 -0.020545958 0.0045640226 -3.2917174e-05 -0.022161687
0.0061524212 -0.10535299 -0.13757293 0.053030193 -0.09377458 -0.091779456 -0.07650055 -0.12801562
-0.108875304 -0.069112405 0.034160987 -0.050760847 -0.045474984 0.10620558 0.119721554 0.04546168
-0.06387634 0.1001012 -0.094544314 -0.12282777 0.017009215 0.01893436 0.089574635 0.03110099
-0.10480659 0.099255554 -0.043075733 -0.097199574 0.10401252 -0.08343226 -0.09530326 -0.021900408
0.11074988 -0.07755193 -0.058407705 0.051307663 -0.017557167 0.10523414 -0.093464695 0.07195197
-0.05976311 0.11958136 0.07158466 -0.06038494 0.10517092 0.014188816 0.011135031 0.087995924
-0.07520764 -0.08917782 -0.029950658 -0.04229579 0.06349477 -0.04359531 0.10748409 -0.08005147
0.14065029 -0.015002388 0.1218908 -0.05100351 -0.07482039 -0.04277086 -0.08106166 0.12104993
0.15611553 -0.040982522 -0.12077955 0.009299866 0.051492978 0.13972104 -0.1619213 0.039077565
0.0973342 0.051374637 -0.01924195 -0.026491549 -0.025651207 -0.0030827 0.07582352 0.048049748
-0.048856106 -0.002908719 -0.073752046 0.058167383 -0.06708846 0.09993602 0.036399983 0.0709354
-0.06695755 -0.061889917 0.026513929 0.018376982 -0.0075147175 0.11841931 -0.067415595 0.025048548
0.04094097 0.07032971 0.014418377 0.0046309335 0.07028792 0.103538275 0.077620156 0.020539774
0.13729395 -0.03186523 -0.05028854 -0.03929674 -0.008723942 0.043040406 -0.03269781 -0.051346537
-0.059806265 0.09362446 0.08474604 0.00615104 -0.011580567 0.023665007 0.067575105 -0.13123792
-0.046978075 0.094636425 0.07610693 -0.09741943 0.07644196 0.070796594 0.119349584 0.077019446
0.034773275 0.065239936 -0.072242856 -0.029325018 -0.12926652 -0.04778589 -0.08377349 -0.098446265
0.101179995 -0.040396154 0.04406833 0.0270366 0.088705674 0.041750364 -0.055764623 -0.091113515
0.038407657 -0.12657738 0.0417348 0.098864876 0.07684858 0.0461745 0.10508161 0.10084671

sequential/dense_1/MatMul f4 [64, 128]
00000000: 9f78 96bd 8d89 993d 54d8 08be e09d 703c
00000010: 7814 03be f43c 873d b9ef f0bd b1c8 b23d
00000020: 02ab 9cbd a945 553e c2e6 223c 1814 d63c
00000030: 005c 01bc 229f b53d 0210 01bd 5802 b43d
00000040: 4153 cb3d 8a71 973d 1675 32bd 88f7 d4bd
00000050: 885b e5bc 1801 1cbc fc1b 8bbc bdd8 f1bc
00000060: 956e 4bbd 0b3b 21be ecad 22bb f7e1 25bd
00000070: 6910 f8bd 01b4 51be 1321 f8bd c1fe 2fbe
00000080: cfd1 403d a204 df3d 5de9 8ebd a65d 29be
00000090: 6626 f73d e013 57bd 28d2 99bd 2fb5 d53d
000000a0: 927a 53be 6bcc 233e d8ac 343e 0041 c2bd
000000b0: 3b98 f3bc 7acf 07bd 4343 36bc 6f15 943c
000000c0: f841 c13d 31ac 9abb a606 f53c 6551 e63d
000000d0: 495b e6bd a64e a1bc 30f7 263e d80f dabb
000000e0: 2cce 023e 7276 413e bc9a e33d 95df 01bd
000000f0: 5d7b 38be 6cad 21bd 65f5 773b a0ad 90bd
00000100: 1321 163d 8a81 213d 3aa0 993d 2396 01be
00000110: beb3 cabd 8c3d 053c 43a9 063e 3845 323e
00000120: 574a 08be 906c 6dbb 131f 073d b3bf 103e
00000130: f375 373e 85e2 fb3d 7a11 de3d eec8 c83d
00000140: b860 1c3e ef31 c73d f6bb 2fbe 12e5 dc3c
00000150: e630 bcbd 39a3 dc3d 8c02 343d df55 d03c
00000160: ed85 08be b21d db3d d6df 12be 8a2d b2bb
00000170: 6f21 0e3e ac00 223e 6f11 81bc e2b0 c13d
00000180: ea77 213e 3b7f 3dbe 2c8e 183e 64d6 3cbe
00000190: a209 d63d 2008 f93d 61cd e8bb cc01 103e
000001a0: dfd9 0d3d 156d ba3d 7300 d43d 4a57 41be
000001b0: a852 9fbd 5ba8 433e 0f0b 3cbd 3c6c 97bd
000001c0: b724 a6bc 9761 1ebe c105 fdbc 243f e63d
000001d0: ba84 2ebe d681 26b9 fd04 123c 23ad ae3d
000001e0: d271 99bd 6f1e 57bb 5978 a4bc b6dc 71bc
000001f0: 565e 653c a466 31bc 9b7e 2dbe b706 05be
00000200: 5434 b2bd beba 3d3d 10c3 c3ba b10f 6ebc
00000210: cae7 3ebe 3286 2dbb 9448 003e 7e22 193e
00000220: 7177 c63d a343 ec3d c718 1bbe 3e1e a33d
00000230: 19d9 9ebd 6361 2fbd 07d8 c8bd 78e7 35be
00000240: 1720 87bd 196d ab3d 4709 3c3e a1cf 67bd
00000250: e7ef 38bd c185 27be 0d82 debd e019 483d
00000260: 8c26 a93d 9ea1 403e 76c1 2abd c32f 1e3e
00000270: efda d03d f893 d73d 63ce fa3c a829 35bd
00000280: f6db 0fbe 7242 f03d ac0c 79bd bc08 01be
00000290: 72ed 0bbe fee5 c0bd 1b01 543a ffeb c6bc
000002a0: e8c3 c53d 2c6e 3b3e af85 0e3d cb9a 06be
000002b0: 6edc dd3d 7d06 1c3d beec 1a3d 7452 1fbe
000002c0: 2498 183e 2b50 f83d b0da 0fbe ef53 e4bd
000002d0: 5ba6 17be b176 213e 6464 133e 4711 0f3e
000002e0: 5ccd 9a3d 99ef 343d 6be7 5f3b c1b7 8ebd
000002f0: 700d 17be ac8c ca3a d745 f9bc 7213 47bd
00000300: 7faa 21bd 02a9 113e 7771 f0bd 17a3 bebd
00000310: 8f44 913d 7b8f e53d 8463 133e 2f73 b63c
00000320: f485 5d3a 7083 08bd 21ca 903d e9ac a1bb
00000330: 9ce8 95bd 039b 173d 4253 013e 916b 3a3e
00000340: d6c6 0c3e 51fd 09be b9b2 5f3c cc82 43bc
00000350: 4c15 3bbd 7311 ea3c 9c24 0a3e 1fbe 0ebe
00000360: a757 ee3d 8bb7 72bd 39d0 db3d 1a21 223e
00000370: 7264 cebd 5300 883d 7654 063e b71c 5fbe
00000380: 825a 903d 22cd 973d 85ad 12be d305 24be
00000390: 14a5 6c3c 98db 983d e69c cb3d 4b58 40be
000003a0: 5d25 15be 36a9 db3d faa8 44bb 4a95 e93d
000003b0: 2e17 14be cb2e 1d3e f415 043e a129 33bd
000003c0: a539 e43d b823 58bd ce6c a13c 34a6 cd3a
000003d0: e063 dfbd c328 13be 70f6 72bc 7a19 71bd
000003e0: 4451 8abd 6673 e03d 6cec d8bd 409c fc3c
000003f0: f681 b8bd a29c debd e401 3e3d fd6a 543d
-0.073472254 0.07496939 -0.13363773 0.014686078 -0.12800777 0.06603423 -0.117644735 0.08729685
-0.07649805 0.20827354 0.009942712 0.026132628 -0.00789547 0.08868243 -0.031509407 0.087895095
0.09927989 0.07394703 -0.043568693 -0.10398775 -0.027997747 -0.009521745 -0.016981117 -0.029522294
-0.049666006 -0.1574518 -0.0024822904 -0.0404987 -0.12112505 -0.20478822 -0.121156834 -0.17187025
0.04707509 0.108895555 -0.06978104 -0.1653963 0.12067871 -0.05250919 -0.07510787 0.10434949
-0.20652226 0.15995948 0.1764406 -0.09485054 -0.029735675 -0.03315685 -0.011124435 0.018076627
0.09436411 -0.004720234 0.029910397 0.112459935 -0.1124788 -0.019690823 0.16305232 -0.0066547208
0.12773961 0.1889284 0.111134976 -0.031707365 -0.1801581 -0.03947203 0.0037835476 -0.07064366
0.036652636 0.03943018 0.07501264 -0.12654929 -0.09897564 0.00813235 0.13150506 0.17409217
-0.13309608 -0.0036228038 0.03298862 0.14135627 0.17916088 0.122990645 0.10843177 0.09803949
0.1527127 0.09726321 -0.17161545 0.026964698 -0.09189014 0.1077332 0.04394774 0.025431572
-0.13332339 0.10699023 -0.14343199 -0.0054375576 0.13879941 0.15820569 -0.015755383 0.09457566
0.157684 -0.18505566 0.14897984 -0.18441159 0.10451056 0.12159753 -0.007104561 0.14063185
0.034631606 0.09102837 0.10351648 -0.18880954 -0.07779437 0.19107191 -0.045908984 -0.07393691
-0.020281179 -0.15466915 -0.030886533 0.11242512 -0.17042819 -0.00015879361 0.008912322 0.08529117
-0.074924126 -0.0032824536 -0.020076917 -0.014762094 0.013999542 -0.010827694 -0.16942827 -0.12990843
-0.08701387 0.04632067 -0.0014935452 -0.014530108 -0.18643108 -0.0026477692 0.12527686 0.14954564
0.096907504 0.11536338 -0.1514617 0.079647526 -0.07756252 -0.042817485 -0.09806829 -0.1776408
-0.065979175 0.08370418 0.18362914 -0.056594495 -0.045150664 -0.16359617 -0.10864649 0.0488528
0.08259305 0.18811652 -0.041688405 0.15447907 0.10198008 0.1052627 0.030615991 -0.04422918
-0.14048752 0.117314234 -0.0608031 -0.12600988 -0.13664797 -0.094188675 0.0008087323 -0.024282454
0.09656507 0.18303746 0.03479546 -0.13144986 0.10833059 0.038092125 0.03782343 -0.15558797
0.14901787 0.12124666 -0.14048266 -0.111488216 -0.14809553 0.15767933 0.14393765 0.13971435
0.075587004 0.04417381 0.0034165035 -0.06968642 -0.1475122 0.00154533 -0.03042881 -0.04860253
-0.03946924 0.14224628 -0.11740392 -0.09308451 0.07093155 0.11209007 0.14393431 0.02227172
0.00084504415 -0.033328474 0.07069803 -0.0049339426 -0.07319757 0.037013065 0.12629417 0.18205096
0.13747725 -0.13475539 0.013653451 -0.01193304 -0.045674607 0.028572774 0.13490528 -0.13939713
0.11637812 -0.05925707 0.10733075 0.1583294 -0.10077752 0.06640687 0.13118157 -0.21788298
0.07048513 0.07412173 -0.14324005 -0.16017847 0.014443655 0.07463759 0.099420354 -0.18783681
-0.14565034 0.10725634 -0.0030007944 0.11405428 -0.14461967 0.15349881 0.12899 -0.043740872
0.11143807 -0.05276844 0.019705202 0.0015689791 -0.109077215 -0.14371018 -0.014829263 -0.058862187
-0.067537814 0.109595105 -0.10591969 0.030836225 -0.09009163 -0.10869719 0.04638852 0.051859844

sequential/dense_2/MatMul f4 [3, 64]
00000000: 6750 27bc c3c8 60bd b151 483e 5a6e 1e3e
00000010: 8bdb 48be bd6e 583d ce7d 9bbe 840d 15bd
00000020: aabb 1a3c 06aa 913e f0b0 fd3d b2ac 9f3d
00000030: 6003 17bc 2850 243e 4305 133e 404b 523d
00000040: 2870 6d3e 0cb7 9cbd de7c fcbd ed11 96bd
00000050: 5b5a d43d b018 94be c633 79be e2b6 2bbe
00000060: 8b25 4abe 0ce4 87be 7acd 7fbe 5cbe a9bd
00000070: b549 7c3e 2e4a 55be d303 573d 2dde 17be
00000080: cb92 3d3e 6c64 2ebe b4ad 683e 0673 ecbc
00000090: 0be9 613d 9ac9 47be b9e3 92be 907d 6f3e
000000a0: 82d7 89be 5a20 6e3e e6cf 3b3d ebee e83c
000000b0: c832 9abe a581 10bc 8cbb 653e 8ff9 ef3d
000000c0: 3990 61be 8f4e 3b3e 2660 1abe f869 353d
000000d0: 2207 2ebe e95b 2abd 1bfe 593e 36ac de3d
000000e0: 98cf 31be 255c b1bb 5e2f 423e 1d2c f4bc
000000f0: 36ef 913e 9642 81be 49f7 0bbe 8c47 12be
00000100: 20aa 013e a398 f5bd 41c9 7bbd 6545 efbd
00000110: a192 813e 760f 6e3e 451e 53bd 76f6 e8bd
00000120: 1772 523e 3e7b 5cbd db21 043e f92e 85be
00000130: 8af6 e4bd 7b3a ecbd a706 72bd 54a8 35be
00000140: a2d9 37be a72f 60be eff4 2b3d 68d0 853e
00000150: 1909 61be 6bf0 8abd 67cf 033e 792a 373e
00000160: a9b3 a73d 7a28 693d 30e8 883e 873f 1ebe
00000170: 9d8c 0cbe fe38 5a3e 8862 073e 668b 7bbe
00000180: ed6a cebd efd8 2a3e 70cb 58be a789 3e3e
00000190: 9350 75be 56bd 5f3e 71e7 a23d 91db 84be
000001a0: 21f2 21be d1f8 73be 9402 8e3d d824 1e3e
000001b0: 83e9 e7bc 9277 6e3e fdc1 88be 52ff fe3b
000001c0: 5d44 133e d82b 603e 29c5 7d3e 7d89 7cbd
000001d0: 7379 2a3e 10df 9bbe c664 39bc f216 783e
000001e0: 9326 903d c0f1 673e 3f7e a23e 2f5f 83be
000001f0: 4a61 0d3e 3524 333d a746 77be ad06 67bd
00000200: 2dcf 913e 5fe9 b73d f857 edbd dc90 153e
00000210: 1ebc 78be 0666 11be fba2 83be 51f1 8bbe
00000220: e3f8 91bb 9df8 773c 1c74 52bc ec1b ef3d
00000230: 7139 7c3e 8db0 993d ef22 d0bd 3572 0c3e
00000240: f460 0fbe c159 87be f9ce 6a3e ac37 023e
00000250: 5a08 76be 5bff 3abd 27c1 9fbd 8c23 623d
00000260: 0cad 86be 2c4a 66be 8677 243c c263 a83d
00000270: ff9f 94bc 5a8e 3cbd 1022 18be 3a6c 243e
00000280: 818f 0e3e 46aa 3d3e 2589 ab3d 1dc8 c33d
00000290: 6c92 b3bd eb62 963e 5b1c 023e 50ce ee3d
000002a0: 6d52 06bb defb cdbd f125 2ebe 2e5b 32bd
000002b0: 8fbc 87be 2f7e 1ebd 33da 2d3e 10df a83d
000002c0: 72b0 653e 2cdd 2a3e 204c 4cbe 735c 983d
000002d0: 0166 a33d 3930 52be 35de 87be 4b20 1bbe
000002e0: 4bd0 8fbc dc98 31bd e7ab 233e 5306 293e
000002f0: 3edc 163e e09f fe3d 1f48 a43d 3023 ad3b
-0.0102120405 -0.05487896 0.19562413 0.15471783 -0.19614999 0.052839983 -0.3036942 -0.036389843
0.009444157 0.2845003 0.12387264 0.07796611 -0.009217113 0.16046202 0.14357476 0.051341295
0.23187315 -0.07652101 -0.12328504 -0.07327638 0.103687964 -0.28925085 -0.24336156 -0.16768983
-0.19740884 -0.26541173 -0.24980727 -0.08288261 0.24637492 -0.20829079 0.05249388 -0.14830847
0.18513028 -0.17030495 0.22722512 -0.028863441 0.055153888 -0.19510499 -0.28689364 0.23387742
-0.26922232 0.23254529 0.045852564 0.028434237 -0.30116868 -0.008819972 0.22434825 0.117175214
-0.22027673 0.18291686 -0.1507574 0.044290513 -0.16994908 -0.04159156 0.2128834 0.108726904
-0.17364347 -0.005412596 0.18963382 -0.029806191 0.28502816 -0.25246114 -0.1366855 -0.14285105
0.12662554 -0.11992004 -0.061471228 -0.11683158 0.2530718 0.23248085 -0.05154254 -0.11375134
0.20551334 -0.05382847 0.1290354 -0.260124 -0.11179836 -0.11534592 -0.059088375 -0.17739993
-0.17954114 -0.21893178 0.041981634 0.26135564 -0.21976127 -0.06784137 0.12872086 0.17887296
0.08188564 0.056923367 0.26739645 -0.15453921 -0.13725515 0.21310803 0.1322118 -0.24564895
-0.10078988 0.16684316 -0.21171355 0.18607198 -0.23956518 0.2184957 0.079543 -0.25948766
-0.15815021 -0.23825385 0.069340855 0.15443742 -0.02830959 0.232878 -0.267105 0.0077819014
0.14381547 0.21891725 0.24782242 -0.061654557 0.16647892 -0.3044362 -0.01131553 0.24227503
0.070386074 0.22650814 0.31736943 -0.25658557 0.13806644 0.0437357 -0.24148045 -0.05640285
0.28478375 0.08980059 -0.11589044 0.1460604 -0.24290511 -0.14199075 -0.25710282 -0.27332547
-0.0044547184 0.015134958 -0.012845065 0.116752476 0.24631287 0.075043775 -0.10162913 0.13715442
-0.14001828 -0.26435664 0.22930516 0.1271655 -0.24026623 -0.045653682 -0.07800513 0.05520968
-0.263039 -0.22489232 0.010038262 0.08222152 -0.018142698 -0.046034195 -0.14856744 0.1605691
0.1392193 0.18521985 0.083757676 0.09559653 -0.08768162 0.29372343 0.12706129 0.11660445
-0.0020495907 -0.100578055 -0.17006661 -0.043543987 -0.26511046 -0.038694557 0.16977768 0.08245671
0.2243059 0.16685933 -0.19950914 0.07439508 0.0797844 -0.20526208 -0.26536718 -0.15149038
-0.017555377 -0.04335867 0.15983544 0.16506319 0.14732453 0.124328375 0.080215685 0.0052837357

sequential/conv2d/Conv2D f4 [64, 3, 3, 1]
00000000: 169c 75bd df15 dd3c 479c 10bd bc03 a03d
00000010: 9a92 64bd a105 c23d 463f 723d 6d97 8a3d
00000020: 3db4 bcbc ce5a f8bb cd2e 5dbc 441d afbd
00000030: fa92 39bd 0aa8 2ebc b365 5bbd f348 a7bc
00000040: 3456 c2bd 967c b9bd 4dd8 ac3c 9af8 2e3d
00000050: 0110 fc3c fec9 b13d 0bcb 94bd 8408 5cbd
00000060: 9b5a 2e3d 36a2 41bd b96e a53d 4463 a4bc
00000070: 62c4 ba3d 3d0c 9c3c d0cd 2b3c 0850 bd3b
00000080: 2a0e b23d 6c5d c4bd ada2 883d 6ab2 efbb
00000090: 9ba2 b03d 1a88 4f3d cda9 1cbd 35e0 cabd
000000a0: 93fd bebd 086f b03c 3d91 debc c9b6 b83d
000000b0: e8a3 ba3c 61da e23d 6ffc 87bd 1d5d 263d
000000c0: 39cd 95bd ac1f a9bc f2c0 debc 120e d7bd
000000d0: db89 e43b faf4 4e3d ab18 4cbd 4de7 9bbc
000000e0: 2e92 b3bb af94 aabd ff35 da3b cc8c e8bd
000000f0: a940 3fbd 4906 cf3d 5af7 823d a1d2 6cbd
00000100: 3c6f 893d d1df 2c3d ae21 7f3d cc95 06ba
00000110: adc3 203d 4842 8a3c 5ce6 b9bd 8635 453c
00000120: 81d7 063d 75f5 6e3c 66cc 063c 88c5 aebd
00000130: 8dc1 bfbd b458 febd ef06 37bd eeae e13d
00000140: 6647 75bd 2421 40bd 6510 83bd ad1f a8bd
00000150: ac64 c93d 8620 b0bc 978b d13d cd68 77bc
00000160: 66cf b03c cf6f a6bc dbfa fa3d 4837 cabc
00000170: 010f efbc d01e 053d 27db 6ebd f1fe 39bd
00000180: afc1 29bd 269c 0dbc 7616 c1bd 1b00 a8b9
00000190: 0165 aebd 61a0 243c fd18 84bd 3b8c 96bd
000001a0: b665 2f3d 2197 803d caa4 1a3d 793e e0bd
000001b0: 1e92 823d 0da6 37ba 7f63 8ebd 3cbc abbd
000001c0: 3082 f63c 0f2e 14bd 2f67 d33d bec7 8f3d
000001d0: 7a39 cdbd 6071 c53d 7b75 bc3b afa3 7c3c
000001e0: eed5 843d 8c06 863d c063 e33c 60ef bcbd
000001f0: 3329 a33d 365b 583c a5bd 59bc abc4 ce3d
00000200: ffb0 703d 87ef 64bd f3e5 583d c8c4 ffbc
00000210: eef7 013d 1c6c b4bc 3c78 7bbd ed45 ae3c
00000220: e575 6cbd 3da1 e0bd bee1 913c a9a1 cbbc
00000230: da14 9d3d c1c6 243d 4f05 30bd 8c39 1f3d
00000240: 865f 71bc 680f 9939 5650 9e3c d04b a73d
00000250: 4fab a73d a0f0 99bc e385 c13d e590 b13d
00000260: 9c8c c53b 9431 d13c f4bf 9c3d da9b eabc
00000270: d979 62bd 3d4c 8e3c 0548 833d d117 18bd
00000280: 8db6 92bd 6ae7 173d 5609 90bd 2ff8 a7bd
00000290: 0c59 8c3d e438 003d 4410 95bd ff32 c3bb
000002a0: d824 413d 7742 053c c0fd fdbb 8ceb c43d
000002b0: 188d 343b a6f9 963d 7448 f43b 2949 02be
000002c0: b7aa ae3d 9c06 d6bb c6c1 9cbd 3526 983c
000002d0: fd0d c53d 007d e73d 7b49 9b3d 23dc be3d
000002e0: a07a 923c f55f c03c 0a62 803d 1f81 8d3d
000002f0: 45ea 3cbb d53f 45bd 08d2 4ebc c97e a5bd
00000300: 7062 983d 3d77 843c e0c9 33bd 5ef1 c43c
00000310: da90 76bc e8e8 e03c 0008 7cbd de05 a5bd
00000320: ebf8 15bd 14f1 99bd 0dcb a43d 8469 ac3d
00000330: 9b18 53bc ce17 a5bd e5a1 f33c 6d5c d9bd
00000340: 7e7e 9f3d 6d20 95bb aba5 47bd 1497 73bd
00000350: 25c1 7f3d df96 bbbd da4f db3b 5733 a73d
00000360: 7bc2 60bd dbf7 f63c 7057 3cbd 508f 7bbd
00000370: 24f2 06be 2b6e f6bb ee51 233a f4b1 19bd
00000380: 5a31 dd3c 34b6 8f3d 5ba2 2ebd cb4a 8b3c
00000390: a234 863d 2721 913d 3b85 4e3d 0d5b 533c
000003a0: cfcc 983d d8a7 01bc ae42 a63d d261 6cbc
000003b0: f321 723b 4b97 c63d 0ee7 97bd 4b55 06bd
000003c0: 006a 88bd 2508 b63c 3916 e0bd c32d 8abd
000003d0: d4ab acbd 970e a83d c113 e3bc 5c4b 86bd
000003e0: 8b1b 8c3c ffb1 e9bd a016 c9bd 1f12 5d3d
000003f0: da55 6c3d cd44 913d f2e6 8c3c fea6 88bd
-0.05996331 0.026987968 -0.035305288 0.07813212 -0.055803873 0.0947373 0.059142374 0.067671634
-0.023035163 -0.007579184 -0.013499928 -0.08550504 -0.045306183 -0.010660181 -0.053563785 -0.020420527
-0.09489098 -0.09056966 0.021099234 0.042717554 0.03076935 0.08681105 -0.0726529 -0.05371906
0.042566877 -0.047273837 0.08077759 -0.020066865 0.09119488 0.019048804 0.010486081 0.0057773627
0.08694108 -0.09588131 0.06671653 -0.00731497 0.086247645 0.050666906 -0.038247872 -0.09906045
-0.09325709 0.021537319 -0.027168864 0.090192385 0.022783235 0.11076809 -0.06639945 0.040616143
-0.07314534 -0.020644985 -0.027191613 -0.105007306 0.0069744415 0.050526597 -0.049828213 -0.019031191
-0.0054800725 -0.083291404 0.006659269 -0.1135498 -0.046692524 0.10108621 0.06394835 -0.05781806
0.067106694 0.042205635 0.06228798 -0.0005134016 0.03924911 0.016877308 -0.09077141 0.012036687
0.032920364 0.014584889 0.008227443 -0.0853377 -0.09363089 -0.124192625 -0.044684347 0.11019693
-0.059882544 -0.046906605 -0.063996114 -0.08209167 0.09833655 -0.021499883 0.10231703 -0.01510067
0.02158327 -0.020316986 0.12254878 -0.024684563 -0.02918196 0.03250009 -0.05831447 -0.045409147
-0.041444477 -0.008643186 -0.09428112 -0.00032043536 -0.08515359 0.010048003 -0.06450079 -0.073509656
0.04282161 0.062788256 0.03775481 -0.10949416 0.06375526 -0.00070056395 -0.06952571 -0.08385512
0.030091375 -0.036176737 0.10322415 0.0702052 -0.100207284 0.09640765 0.0057513095 0.015419885
0.06486116 0.065442175 0.027757525 -0.09225345 0.079668425 0.01320534 -0.013289844 0.10096105
0.058762547 -0.055892494 0.05295367 -0.031221762 0.031730585 -0.022024207 -0.06139396 0.021273578
-0.05772962 -0.10968254 0.017807838 -0.024857359 0.07669993 0.04022861 -0.042973813 0.03887324
-0.014732247 0.00029193913 0.019325417 0.08168757 0.081869714 -0.018791497 0.09449365 0.086702146
0.006028725 0.025536336 0.076538 -0.028638769 -0.055291984 0.017370338 0.06410221 -0.037132088
-0.07163725 0.037085928 -0.07033031 -0.08201634 0.06852922 0.031304255 -0.07278493 -0.005957007
0.047154278 0.008133522 -0.0077511966 0.096152395 0.0027549919 0.073718354 0.007454926 -0.12723221
0.08528655 -0.0065315496 -0.07654147 0.018572906 0.09621809 0.11303139 0.07582375 0.093193315
0.017880738 0.023483256 0.062686995 0.069093935 -0.002882616 -0.048156578 -0.012623318 -0.08080823
0.074406505 0.016170138 -0.043893695 0.024040874 -0.015049184 0.027454808 -0.061531067 -0.0805776
-0.03661434 -0.07516685 0.08046541 0.08418563 -0.012884284 -0.08061181 0.029740283 -0.10613332
0.07787798 -0.0045509846 -0.048741978 -0.05947025 0.062440056 -0.09159636 0.0066928687 0.08164089
-0.05487297 0.030147484 -0.045981824 -0.06141597 -0.13178307 -0.0075204573 0.0006230165 -0.037523225
0.027001072 0.07017174 -0.042635303 0.017003438 0.06553008 0.070864014 0.050420027 0.012900126
0.07460939 -0.007913552 0.08118187 -0.014427619 0.0036946505 0.096968256 -0.07417117 -0.032796185
-0.06660843 0.02222068 -0.10941739 -0.067470096 -0.08431211 0.08205908 -0.02771938 -0.065573424
0.017102977 -0.11410903 -0.098187685 0.05397236 0.057699062 0.07093201 0.017199967 -0.06672476

sequential/conv2d_1/Conv2D f4 [32, 2, 2, 64]
00000000: 875e 99bd 0d01 9ebd b251 c0bd 2820 573c
00000010: 2471 803d ae27 a2bd 85be 073d c869 15bd
00000020: 6343 f3bc d2f3 023e 0b57 a6bd 584c 8d3d
00000030: 4115 ba3d 81ef b03d 37f9 e2bd ca05 e63d
00000040: f09c 913a 978c 183e e55d 99bb 49a6 2ebb
00000050: 1032 c8bd 5f06 e63c 23e0 5abd 39bb bf3d
00000060: 7fb1 dc3c 7e44 293d ce00 76bd b910 c1bd
00000070: 51d0 1d3e 3f51 da3d f26c a1bd c3e6 ea3c
00000080: 090c 10be d050 193e 4933 d83d 98c1 c53d
00000090: 9c36 af3d 9b81 86bd 9344 88bd c42e 54bd
000000a0: ce94 5fbd defa e33d ab2f 43bd 7087 713d
000000b0: b6ae bcbc 002e 113e a5f5 b53a 5244 b3bc
000000c0: 6d62 05be 9557 37bd cc49 75bd 0e31 d6bc
000000d0: fe72 5c3a ddf6 eebd 8922 80bc a475 03be
000000e0: f140 45bd f110 16bd 6aac 083e a782 9abd
000000f0: 6dd9 b9bd 6cf7 19bb 0415 a73b 2bd5 c1bd
00000100: 5fe9 18be 9043 15be bfce c1bd be5e 193d
00000110: b93c d03d 5210 4bbd 196f ebbb 31f2 1a3d
00000120: 2baa 663d d904 a03d e36e f33c 3a79 d63d
00000130: 8a82 e8bd 07e2 1d3c 0f85 133d 5327 82bd
00000140: accf b6bd 5150 a53d 5697 00be 8769 9abd
00000150: a660 edbd 807f 41bd 6368 50bd df79 c53c
00000160: 4a74 29bc f679 d4bd c1b5 3b3d 6d54 ac3d
00000170: d25e aebd 3f89 753d fbc5 ca3d 8985 193c
00000180: 9ce0 8abd 63b3 f33d 0588 793d 870e d83d
00000190: 169a e4bc 639e dfbd 466e b4bc d563 5b3c
000001a0: 9849 adbd d461 e03d 6676 aebd 3c8b ae3c
000001b0: be55 d53d 0ce0 f73d 58fd ebbd cbfa cfbd
000001c0: 3d92 91bd 9308 9d3d a95d a73d f422 e73c
000001d0: 4c52 8fbd d510 29bd a0d1 273d 8525 f43c
000001e0: b2e9 96bb 86e7 01be 55c8 b93d 0117 30bc
000001f0: 10d5 fcbd f33e e13d a860 a1bd 627c 86bd
00000200: 6a04 e33d 0f9e f43c 382f 2bbd e44f a83d
00000210: 186e b4bd c618 d13d 50bb 003b c6af 6e3d
00000220: a619 3abd 92c3 b93d 09e1 af3d ca95 133d
00000230: 0118 093d 6417 d0bc c504 b83d d099 38bd
00000240: dde7 ac3d 8d1d 743d b887 babd f5ce 42bd
00000250: 65b1 a3bc 31c4 003d 4d23 793d c8ff 83bd
00000260: 645e c03d e1c1 adbd f751 d2bd 6b30 22be
00000270: 1a08 b7bd e86a 103c 3ef3 32bd d711 5c3d
00000280: 0250 e73b 52c6 0d3d 172d 75bd b2e6 473d
00000290: e1c4 58bd 86bc dcbc 6a8c b73d f23f 803d
000002a0: ee8a e5bd ccef 9cbd f544 e4bd 0900 69bd
000002b0: f662 70bd 7fef 233b 1c48 623d 7afb d03d
000002c0: 7ff9 4ebd 80bb 13bd 0cea e8bc 76a7 ad39
000002d0: 89dd fbbd fc73 db3c 61a3 cebd c052 b9bd
000002e0: 8cd9 d83d 50eb e03d 0316 adbd 45c5 08be
000002f0: 2132 6dbd c1ce 643d cde9 413d 806d bc3d
00000300: 5a3c 8a3c 3f47 11bd 925f 99bd 4ea5 7d3d
00000310: 0f64 6fbd 3358 aabd 1a67 543d 5ad3 8ebd
00000320: 6722 663c 0c8c 953d 6120 c53d 25a1 88bc
00000330: ad55 91bd 0ab6 b4bd d743 433d f54b 3e3d
00000340: 6a07 fc3c dd0e 80bd 2567 003d 76b3 c63d
00000350: 1d4f be3b a779 0abe fca5 8f3d 2308 eb3d
00000360: 4fff 48bc 4524 333d f792 6fbc 56ab e3bd
00000370: af1f 093e b1f4 aabd 7c34 393d 68d2 b83c
00000380: 18cb 113d da43 fd3c 26ce 1dbe 38c0 713c
00000390: 9ab2 153e 5673 903d 9d30 96bd f9e0 fe3c
000003a0: 7825 e6bd eaa2 9c3d c32f 193c 0e4a 403d
000003b0: 76fd a23d 95dd b6bd 4a93 273d 035b bcbd
000003c0: 1f8e 903d f3a4 9fbd 3606 043d fc1b 9cbd
000003d0: 46ea b7bd 9a52 4f3c b422 553d f0ae f83d
000003e0: c95e 303d a9fb ea3b 0721 1ebd 57bf 64bc
000003f0: a979 c83d 4046 1dbe 82b7 6fbd 3acc ccbc
-0.07488733 -0.07715044 -0.09390582 0.013130225 0.0627158 -0.079177245 0.033140678 -0.036477834
-0.029695218 0.12788323 -0.08122071 0.06899327 0.09086085 0.08639432 -0.1108269 0.11231573
0.0011109393 0.14897381 -0.0046803826 -0.0026649407 -0.09775174 0.02807921 -0.05343641 0.09361882
0.026940105 0.041325085 -0.06005936 -0.09427018 0.15411498 0.10660028 -0.07882108 0.028674489
-0.14067091 0.14972234 0.10556657 0.09656066 0.08555338 -0.06567689 -0.066537045 -0.05180241
-0.05458527 0.111318335 -0.04765288 0.058967054 -0.023032527 0.14177704 0.0013882412 -0.021883164
-0.13025828 -0.04476126 -0.05988483 -0.026146438 0.0008409469 -0.11668179 -0.015641468 -0.12837845
-0.048157636 -0.03663725 0.13347021 -0.07544451 -0.09074674 -0.0023493422 0.005098941 -0.09464487
-0.14932774 -0.14576554 -0.09463262 0.03744387 0.10167832 -0.04957611 -0.0071848747 0.037828628
0.05631463 0.078134246 0.02971596 0.10472341 -0.11353023 0.009636409 0.036015566 -0.06355157
-0.08926329 0.0807196 -0.1255773 -0.07539659 -0.115907 -0.047240734 -0.0508808 0.024105964
-0.010342667 -0.10374825 0.04582763 0.084145404 -0.08514179 0.05994534 0.09901043 0.009370216
-0.06781122 0.1189945 0.060920734 0.10549646 -0.027905505 -0.10918882 -0.022025239 0.013390501
-0.084613025 0.10956159 -0.085186765 0.021306626 0.10416745 0.121032804 -0.11522931 -0.10155257
-0.07107971 0.07667651 0.08172161 0.02821491 -0.06998119 -0.041275818 0.0409714 0.029803047
-0.0046054954 -0.12685975 0.090714134 -0.010747672 -0.12345326 0.10998335 -0.07879764 -0.06566693
0.11084826 0.029860524 -0.04179308 0.08218363 -0.08810061 0.10209803 0.0019642897 0.0582731
-0.045434617 0.09070505 0.08587844 0.03603152 0.033470158 -0.025401779 0.08985285 -0.045068562
0.08442662 0.059598494 -0.091079175 -0.04756065 -0.01998205 0.031437103 0.06082468 -0.06445271
0.093930036 -0.08484245 -0.1026954 -0.15838782 -0.08937092 0.008814551 -0.043689005 0.05372795
0.007059098 0.03461296 -0.059857454 0.048803993 -0.052922133 -0.026945364 0.08962329 0.062621966
-0.11208139 -0.07662925 -0.11145965 -0.0568848 -0.058688127 0.0025014577 0.05524455 0.10204215
-0.050530907 -0.036067486 -0.028431915 0.000331219 -0.12298114 0.026788704 -0.10089756 -0.090489864
0.10588369 0.10982382 -0.08451464 -0.13356502 -0.057909135 0.05586124 0.04734211 0.09200573
0.016874481 -0.035468336 -0.07488932 0.061925225 -0.058445033 -0.08317604 0.051856138 -0.06973906
0.014046288 0.073021024 0.096253164 -0.016678402 -0.070964195 -0.08823784 0.04767212 0.046459157
0.030765254 -0.06252835 0.031348366 0.09702198 0.005807771 -0.13522969 0.07014081 0.11476161
-0.012267902 0.04373576 -0.0146224415 -0.11116664 0.13390993 -0.083474524 0.04521607 0.022561267
0.035594076 0.030916143 -0.1541067 0.014755301 0.14618912 0.070532486 -0.07333491 0.031113135
-0.11237615 0.07648261 0.009349766 0.046945624 0.079585 -0.08928982 0.04091195 -0.091970466
0.070583574 -0.077951334 0.032232486 -0.07622525 -0.08980231 0.012653971 0.05203505 0.12142742
0.043059144 0.0071711135 -0.038605716 -0.013961635 0.0978883 -0.1535883 -0.058524616 -0.024999727
